…
[11:01:55] DeepAR.Eval: - Full test metrics: ND: 0.075; RMSE: 0.567; test_loss: 5.357
[11:01:55] DeepAR.Train: train_loss: -1.5410272280375164
[12:37:33] DeepAR.Train: Loading the datasets...
[12:37:34] DeepAR.Data: train_len: 389101
[12:37:34] DeepAR.Data: building datasets from data/elect...
[12:37:34] DeepAR.Data: test_len: 2590
[12:37:34] DeepAR.Data: building datasets from data/elect...
[12:37:34] DeepAR.Data: weights: tensor([4.5579e-08, 4.7663e-08, 4.8446e-08,  ..., 8.4827e-05, 8.4776e-05,
        8.4272e-05], dtype=torch.float64)
[12:37:34] DeepAR.Data: num samples: 389101
[12:37:34] DeepAR.Train: Loading complete.
[12:37:34] DeepAR.Train: Model: 
Net(
  (embedding): Embedding(370, 20)
  (lstm): LSTM(25, 40, num_layers=3, dropout=0.1)
  (relu): ReLU()
  (distribution_mu): Linear(in_features=120, out_features=1, bias=True)
  (distribution_presigma): Linear(in_features=120, out_features=1, bias=True)
  (distribution_sigma): Softplus(beta=1, threshold=20)
)
[12:37:34] DeepAR.Train: Starting training for 20 epoch(s)
[12:37:34] DeepAR.Train: begin training and evaluation
[12:37:34] DeepAR.Train: Epoch 1/20
[12:55:15] DeepAR.Train: Loading the datasets...
[12:55:16] DeepAR.Data: train_len: 389101
[12:55:16] DeepAR.Data: building datasets from data/elect...
[12:55:16] DeepAR.Data: test_len: 2590
[12:55:16] DeepAR.Data: building datasets from data/elect...
[12:55:16] DeepAR.Data: weights: tensor([4.5579e-08, 4.7663e-08, 4.8446e-08,  ..., 8.4827e-05, 8.4776e-05,
        8.4272e-05], dtype=torch.float64)
[12:55:16] DeepAR.Data: num samples: 389101
[12:55:16] DeepAR.Train: Loading complete.
[12:55:16] DeepAR.Train: Model: 
Net(
  (embedding): Embedding(370, 20)
  (lstm): LSTM(25, 40, num_layers=3, dropout=0.1)
  (relu): ReLU()
  (distribution_mu): Linear(in_features=120, out_features=1, bias=True)
  (distribution_presigma): Linear(in_features=120, out_features=1, bias=True)
  (distribution_sigma): Softplus(beta=1, threshold=20)
)
[12:55:16] DeepAR.Train: Starting training for 20 epoch(s)
[12:55:16] DeepAR.Train: begin training and evaluation
[12:55:16] DeepAR.Train: Epoch 1/20
[12:56:19] DeepAR.Eval: - Full test metrics: ND: 0.845; RMSE: 6.406; test_loss: 7.849; rou90: 0.314; rou50: 0.836
[12:56:19] DeepAR.Train: train_loss: 1.5325088500976562
…
[23:24:47] DeepAR.Data: weights: tensor([4.5579e-08, 4.7663e-08, 4.8446e-08,  ..., 8.4827e-05, 8.4776e-05,
        8.4272e-05], dtype=torch.float64)
[23:24:47] DeepAR.Data: weights: tensor([4.5579e-08, 4.7663e-08, 4.8446e-08,  ..., 8.4827e-05, 8.4776e-05,
        8.4272e-05], dtype=torch.float64)
[23:24:47] DeepAR.Data: num samples: 389101
[23:24:47] DeepAR.Data: num samples: 389101
[23:24:47] DeepAR.Data: num samples: 389101
[23:24:47] DeepAR.Train: Loading complete.
[23:24:47] DeepAR.Train: Loading complete.
[23:24:47] DeepAR.Train: Loading complete.
[23:24:47] DeepAR.Train: Model: 
Net(
  (embedding): Embedding(370, 20)
  (lstm): LSTM(25, 40, num_layers=3, dropout=0.1)
  (relu): ReLU()
  (distribution_mu): Linear(in_features=120, out_features=1, bias=True)
  (distribution_presigma): Linear(in_features=120, out_features=1, bias=True)
  (distribution_sigma): Softplus(beta=1, threshold=20)
)
[23:24:47] DeepAR.Train: Model: 
Net(
  (embedding): Embedding(370, 20)
  (lstm): LSTM(25, 40, num_layers=3, dropout=0.1)
  (relu): ReLU()
  (distribution_mu): Linear(in_features=120, out_features=1, bias=True)
  (distribution_presigma): Linear(in_features=120, out_features=1, bias=True)
  (distribution_sigma): Softplus(beta=1, threshold=20)
)
[23:24:47] DeepAR.Train: Model: 
Net(
  (embedding): Embedding(370, 20)
  (lstm): LSTM(25, 40, num_layers=3, dropout=0.1)
  (relu): ReLU()
  (distribution_mu): Linear(in_features=120, out_features=1, bias=True)
  (distribution_presigma): Linear(in_features=120, out_features=1, bias=True)
  (distribution_sigma): Softplus(beta=1, threshold=20)
)
[23:24:47] DeepAR.Train: Starting training for 20 epoch(s)
[23:24:47] DeepAR.Train: Starting training for 20 epoch(s)
[23:24:47] DeepAR.Train: Starting training for 20 epoch(s)
[23:24:57] DeepAR.Train: begin training and evaluation
[23:24:57] DeepAR.Train: begin training and evaluation
[23:24:57] DeepAR.Train: begin training and evaluation
…
[23:27:17] DeepAR.Data: weights: tensor([4.5579e-08, 4.7663e-08, 4.8446e-08,  ..., 8.4827e-05, 8.4776e-05,
        8.4272e-05], dtype=torch.float64)
[23:27:17] DeepAR.Data: weights: tensor([4.5579e-08, 4.7663e-08, 4.8446e-08,  ..., 8.4827e-05, 8.4776e-05,
        8.4272e-05], dtype=torch.float64)
[23:27:17] DeepAR.Data: num samples: 389101
[23:27:17] DeepAR.Data: num samples: 389101
[23:27:17] DeepAR.Data: num samples: 389101
[23:27:17] DeepAR.Data: num samples: 389101
[23:27:17] DeepAR.Train: Loading complete.
[23:27:17] DeepAR.Train: Loading complete.
[23:27:17] DeepAR.Train: Loading complete.
[23:27:17] DeepAR.Train: Loading complete.
[23:27:17] DeepAR.Train: Model: 
Net(
  (embedding): Embedding(370, 20)
  (lstm): LSTM(25, 40, num_layers=3, dropout=0.1)
  (relu): ReLU()
  (distribution_mu): Linear(in_features=120, out_features=1, bias=True)
  (distribution_presigma): Linear(in_features=120, out_features=1, bias=True)
  (distribution_sigma): Softplus(beta=1, threshold=20)
)
[23:27:17] DeepAR.Train: Model: 
Net(
  (embedding): Embedding(370, 20)
  (lstm): LSTM(25, 40, num_layers=3, dropout=0.1)
  (relu): ReLU()
  (distribution_mu): Linear(in_features=120, out_features=1, bias=True)
  (distribution_presigma): Linear(in_features=120, out_features=1, bias=True)
  (distribution_sigma): Softplus(beta=1, threshold=20)
)
[23:27:17] DeepAR.Train: Model: 
Net(
  (embedding): Embedding(370, 20)
  (lstm): LSTM(25, 40, num_layers=3, dropout=0.1)
  (relu): ReLU()
  (distribution_mu): Linear(in_features=120, out_features=1, bias=True)
  (distribution_presigma): Linear(in_features=120, out_features=1, bias=True)
  (distribution_sigma): Softplus(beta=1, threshold=20)
)
[23:27:17] DeepAR.Train: Model: 
Net(
  (embedding): Embedding(370, 20)
  (lstm): LSTM(25, 40, num_layers=3, dropout=0.1)
  (relu): ReLU()
  (distribution_mu): Linear(in_features=120, out_features=1, bias=True)
  (distribution_presigma): Linear(in_features=120, out_features=1, bias=True)
  (distribution_sigma): Softplus(beta=1, threshold=20)
)
[23:27:17] DeepAR.Train: Starting training for 20 epoch(s)
[23:27:17] DeepAR.Train: Starting training for 20 epoch(s)
[23:27:17] DeepAR.Train: Starting training for 20 epoch(s)
[23:27:17] DeepAR.Train: Starting training for 20 epoch(s)
[23:27:19] DeepAR.Train: begin training and evaluation
[23:27:19] DeepAR.Train: begin training and evaluation
…
